…
2025-03-11 10:53:01 - CUDA Device Total Memory [GB]:25.380061184
2025-03-11 10:53:01 - Starting new experiment!
2025-03-11 10:53:01 - Hyperparameters:
2025-03-11 10:53:01 - {
    "model_name": "ResNet50",
    "pretrained_model": false,
    "batchSize": 64,
    "n_epochs": 1,
    "optimizer": "Adam",
    "lr": 0.001
}
2025-03-11 10:53:01 - Training model: (ResNet50, pretrained=False)
2025-03-11 10:57:51 - Epoch 1/1, Loss: 2.4094, Accuracy: 22.0433%
2025-03-11 10:58:10 - Test Accuracy: 30.25%
2025-03-11 10:58:31 - Starting new experiment!
2025-03-11 10:58:31 - Hyperparameters:
2025-03-11 10:58:31 - {
    "model_name": "ResNet(\n  (conv1): Conv2d(3, 64, kernel_size=(7, 7), stride=(2, 2), padding=(3, 3), bias=False)\n  (bn1): BatchNorm2d(64, eps=1e-05, momentum=0.1, affine=True, track_running_stats=True)\n  (relu): ReLU(inplace=True)\n  (maxpool): MaxPool2d(kernel_size=3, stride=2, padding=1, dilation=1, ceil_mode=False)\n  (layer1): Sequential(\n    (0): Bottleneck(\n      (conv1): Conv2d(64, 64, kernel_size=(1, 1), stride=(1, 1), bias=False)\n      (bn1): BatchNorm2d(64, eps=1e-05, momentum=0.1, affine=True, track_running_stats=True)\n      (conv2): Conv2d(64, 64, kernel_size=(3, 3), stride=(1, 1), padding=(1, 1), bias=False)\n      (bn2): BatchNorm2d(64, eps=1e-05, momentum=0.1, affine=True, track_running_stats=True)\n      (conv3): Conv2d(64, 256, kernel_size=(1, 1), stride=(1, 1), bias=False)\n      (bn3): BatchNorm2d(256, eps=1e-05, momentum=0.1, affine=True, track_running_stats=True)\n      (relu): ReLU(inplace=True)\n      (downsample): Sequential(\n        (0): Conv2d(64, 256, kernel_size=(1, 1), stride=(1, 1), bias=False)\n        (1): BatchNorm2d(256, eps=1e-05, momentum=0.1, affine=True, track_running_stats=True)\n      )\n    )\n    (1): Bottleneck(\n      (conv1): Conv2d(256, 64, kernel_size=(1, 1), stride=(1, 1), bias=False)\n      (bn1): BatchNorm2d(64, eps=1e-05, momentum=0.1, affine=True, track_running_stats=True)\n      (conv2): Conv2d(64, 64, kernel_size=(3, 3), stride=(1, 1), padding=(1, 1), bias=False)\n      (bn2): BatchNorm2d(64, eps=1e-05, momentum=0.1, affine=True, track_running_stats=True)\n      (conv3): Conv2d(64, 256, kernel_size=(1, 1), stride=(1, 1), bias=False)\n      (bn3): BatchNorm2d(256, eps=1e-05, momentum=0.1, affine=True, track_running_stats=True)\n      (relu): ReLU(inplace=True)\n    )\n    (2): Bottleneck(\n      (conv1): Conv2d(256, 64, kernel_size=(1, 1), stride=(1, 1), bias=False)\n      (bn1): BatchNorm2d(64, eps=1e-05, momentum=0.1, affine=True, track_running_stats=True)\n      (conv2): Conv2d(64, 64, kernel_size=(3, 3), stride=(1, 1), padding=(1, 1), bias=False)\n      (bn2): BatchNorm2d(64, eps=1e-05, momentum=0.1, affine=True, track_running_stats=True)\n      (conv3): Conv2d(64, 256, kernel_size=(1, 1), stride=(1, 1), bias=False)\n      (bn3): BatchNorm2d(256, eps=1e-05, momentum=0.1, affine=True, track_running_stats=True)\n      (relu): ReLU(inplace=True)\n    )\n  )\n  (layer2): Sequential(\n    (0): Bottleneck(\n      (conv1): Conv2d(256, 128, kernel_size=(1, 1), stride=(1, 1), bias=False)\n      (bn1): BatchNorm2d(128, eps=1e-05, momentum=0.1, affine=True, track_running_stats=True)\n      (conv2): Conv2d(128, 128, kernel_size=(3, 3), stride=(2, 2), padding=(1, 1), bias=False)\n      (bn2): BatchNorm2d(128, eps=1e-05, momentum=0.1, affine=True, track_running_stats=True)\n      (conv3): Conv2d(128, 512, kernel_size=(1, 1), stride=(1, 1), bias=False)\n      (bn3): BatchNorm2d(512, eps=1e-05, momentum=0.1, affine=True, track_running_stats=True)\n      (relu): ReLU(inplace=True)\n      (downsample): Sequential(\n        (0): Conv2d(256, 512, kernel_size=(1, 1), stride=(2, 2), bias=False)\n        (1): BatchNorm2d(512, eps=1e-05, momentum=0.1, affine=True, track_running_stats=True)\n      )\n    )\n    (1): Bottleneck(\n      (conv1): Conv2d(512, 128, kernel_size=(1, 1), stride=(1, 1), bias=False)\n      (bn1): BatchNorm2d(128, eps=1e-05, momentum=0.1, affine=True, track_running_stats=True)\n      (conv2): Conv2d(128, 128, kernel_size=(3, 3), stride=(1, 1), padding=(1, 1), bias=False)\n      (bn2): BatchNorm2d(128, eps=1e-05, momentum=0.1, affine=True, track_running_stats=True)\n      (conv3): Conv2d(128, 512, kernel_size=(1, 1), stride=(1, 1), bias=False)\n      (bn3): BatchNorm2d(512, eps=1e-05, momentum=0.1, affine=True, track_running_stats=True)\n      (relu): ReLU(inplace=True)\n    )\n    (2): Bottleneck(\n      (conv1): Conv2d(512, 128, kernel_size=(1, 1), stride=(1, 1), bias=False)\n      (bn1): BatchNorm2d(128, eps=1e-05, momentum=0.1, affine=True, track_running_stats=True)\n      (conv2): Conv2d(128, 128, kernel_size=(3, 3), stride=(1, 1), padding=(1, 1), bias=False)\n      (bn2): BatchNorm2d(128, eps=1e-05, momentum=0.1, affine=True, track_running_stats=True)\n      (conv3): Conv2d(128, 512, kernel_size=(1, 1), stride=(1, 1), bias=False)\n      (bn3): BatchNorm2d(512, eps=1e-05, momentum=0.1, affine=True, track_running_stats=True)\n      (relu): ReLU(inplace=True)\n    )\n    (3): Bottleneck(\n      (conv1): Conv2d(512, 128, kernel_size=(1, 1), stride=(1, 1), bias=False)\n      (bn1): BatchNorm2d(128, eps=1e-05, momentum=0.1, affine=True, track_running_stats=True)\n      (conv2): Conv2d(128, 128, kernel_size=(3, 3), stride=(1, 1), padding=(1, 1), bias=False)\n      (bn2): BatchNorm2d(128, eps=1e-05, momentum=0.1, affine=True, track_running_stats=True)\n      (conv3): Conv2d(128, 512, kernel_size=(1, 1), stride=(1, 1), bias=False)\n      (bn3): BatchNorm2d(512, eps=1e-05, momentum=0.1, affine=True, track_running_stats=True)\n      (relu): ReLU(inplace=True)\n    )\n  )\n  (layer3): Sequential(\n    (0): Bottleneck(\n      (conv1): Conv2d(512, 256, kernel_size=(1, 1), stride=(1, 1), bias=False)\n      (bn1): BatchNorm2d(256, eps=1e-05, momentum=0.1, affine=True, track_running_stats=True)\n      (conv2): Conv2d(256, 256, kernel_size=(3, 3), stride=(2, 2), padding=(1, 1), bias=False)\n      (bn2): BatchNorm2d(256, eps=1e-05, momentum=0.1, affine=True, track_running_stats=True)\n      (conv3): Conv2d(256, 1024, kernel_size=(1, 1), stride=(1, 1), bias=False)\n      (bn3): BatchNorm2d(1024, eps=1e-05, momentum=0.1, affine=True, track_running_stats=True)\n      (relu): ReLU(inplace=True)\n      (downsample): Sequential(\n        (0): Conv2d(512, 1024, kernel_size=(1, 1), stride=(2, 2), bias=False)\n        (1): BatchNorm2d(1024, eps=1e-05, momentum=0.1, affine=True, track_running_stats=True)\n      )\n    )\n    (1): Bottleneck(\n      (conv1): Conv2d(1024, 256, kernel_size=(1, 1), stride=(1, 1), bias=False)\n      (bn1): BatchNorm2d(256, eps=1e-05, momentum=0.1, affine=True, track_running_stats=True)\n      (conv2): Conv2d(256, 256, kernel_size=(3, 3), stride=(1, 1), padding=(1, 1), bias=False)\n      (bn2): BatchNorm2d(256, eps=1e-05, momentum=0.1, affine=True, track_running_stats=True)\n      (conv3): Conv2d(256, 1024, kernel_size=(1, 1), stride=(1, 1), bias=False)\n      (bn3): BatchNorm2d(1024, eps=1e-05, momentum=0.1, affine=True, track_running_stats=True)\n      (relu): ReLU(inplace=True)\n    )\n    (2): Bottleneck(\n      (conv1): Conv2d(1024, 256, kernel_size=(1, 1), stride=(1, 1), bias=False)\n      (bn1): BatchNorm2d(256, eps=1e-05, momentum=0.1, affine=True, track_running_stats=True)\n      (conv2): Conv2d(256, 256, kernel_size=(3, 3), stride=(1, 1), padding=(1, 1), bias=False)\n      (bn2): BatchNorm2d(256, eps=1e-05, momentum=0.1, affine=True, track_running_stats=True)\n      (conv3): Conv2d(256, 1024, kernel_size=(1, 1), stride=(1, 1), bias=False)\n      (bn3): BatchNorm2d(1024, eps=1e-05, momentum=0.1, affine=True, track_running_stats=True)\n      (relu): ReLU(inplace=True)\n    )\n    (3): Bottleneck(\n      (conv1): Conv2d(1024, 256, kernel_size=(1, 1), stride=(1, 1), bias=False)\n      (bn1): BatchNorm2d(256, eps=1e-05, momentum=0.1, affine=True, track_running_stats=True)\n      (conv2): Conv2d(256, 256, kernel_size=(3, 3), stride=(1, 1), padding=(1, 1), bias=False)\n      (bn2): BatchNorm2d(256, eps=1e-05, momentum=0.1, affine=True, track_running_stats=True)\n      (conv3): Conv2d(256, 1024, kernel_size=(1, 1), stride=(1, 1), bias=False)\n      (bn3): BatchNorm2d(1024, eps=1e-05, momentum=0.1, affine=True, track_running_stats=True)\n      (relu): ReLU(inplace=True)\n    )\n    (4): Bottleneck(\n      (conv1): Conv2d(1024, 256, kernel_size=(1, 1), stride=(1, 1), bias=False)\n      (bn1): BatchNorm2d(256, eps=1e-05, momentum=0.1, affine=True, track_running_stats=True)\n      (conv2): Conv2d(256, 256, kernel_size=(3, 3), stride=(1, 1), padding=(1, 1), bias=False)\n      (bn2): BatchNorm2d(256, eps=1e-05, momentum=0.1, affine=True, track_running_stats=True)\n      (conv3): Conv2d(256, 1024, kernel_size=(1, 1), stride=(1, 1), bias=False)\n      (bn3): BatchNorm2d(1024, eps=1e-05, momentum=0.1, affine=True, track_running_stats=True)\n      (relu): ReLU(inplace=True)\n    )\n    (5): Bottleneck(\n      (conv1): Conv2d(1024, 256, kernel_size=(1, 1), stride=(1, 1), bias=False)\n      (bn1): BatchNorm2d(256, eps=1e-05, momentum=0.1, affine=True, track_running_stats=True)\n      (conv2): Conv2d(256, 256, kernel_size=(3, 3), stride=(1, 1), padding=(1, 1), bias=False)\n      (bn2): BatchNorm2d(256, eps=1e-05, momentum=0.1, affine=True, track_running_stats=True)\n      (conv3): Conv2d(256, 1024, kernel_size=(1, 1), stride=(1, 1), bias=False)\n      (bn3): BatchNorm2d(1024, eps=1e-05, momentum=0.1, affine=True, track_running_stats=True)\n      (relu): ReLU(inplace=True)\n    )\n  )\n  (layer4): Sequential(\n    (0): Bottleneck(\n      (conv1): Conv2d(1024, 512, kernel_size=(1, 1), stride=(1, 1), bias=False)\n      (bn1): BatchNorm2d(512, eps=1e-05, momentum=0.1, affine=True, track_running_stats=True)\n      (conv2): Conv2d(512, 512, kernel_size=(3, 3), stride=(2, 2), padding=(1, 1), bias=False)\n      (bn2): BatchNorm2d(512, eps=1e-05, momentum=0.1, affine=True, track_running_stats=True)\n      (conv3): Conv2d(512, 2048, kernel_size=(1, 1), stride=(1, 1), bias=False)\n      (bn3): BatchNorm2d(2048, eps=1e-05, momentum=0.1, affine=True, track_running_stats=True)\n      (relu): ReLU(inplace=True)\n      (downsample): Sequential(\n        (0): Conv2d(1024, 2048, kernel_size=(1, 1), stride=(2, 2), bias=False)\n        (1): BatchNorm2d(2048, eps=1e-05, momentum=0.1, affine=True, track_running_stats=True)\n      )\n    )\n    (1): Bottleneck(\n      (conv1): Conv2d(2048, 512, kernel_size=(1, 1), stride=(1, 1), bias=False)\n      (bn1): BatchNorm2d(512, eps=1e-05, momentum=0.1, affine=True, track_running_stats=True)\n      (conv2): Conv2d(512, 512, kernel_size=(3, 3), stride=(1, 1), padding=(1, 1), bias=False)\n      (bn2): BatchNorm2d(512, eps=1e-05, momentum=0.1, affine=True, track_running_stats=True)\n      (conv3): Conv2d(512, 2048, kernel_size=(1, 1), stride=(1, 1), bias=False)\n      (bn3): BatchNorm2d(2048, eps=1e-05, momentum=0.1, affine=True, track_running_stats=True)\n      (relu): ReLU(inplace=True)\n    )\n    (2): Bottleneck(\n      (conv1): Conv2d(2048, 512, kernel_size=(1, 1), stride=(1, 1), bias=False)\n      (bn1): BatchNorm2d(512, eps=1e-05, momentum=0.1, affine=True, track_running_stats=True)\n      (conv2): Conv2d(512, 512, kernel_size=(3, 3), stride=(1, 1), padding=(1, 1), bias=False)\n      (bn2): BatchNorm2d(512, eps=1e-05, momentum=0.1, affine=True, track_running_stats=True)\n      (conv3): Conv2d(512, 2048, kernel_size=(1, 1), stride=(1, 1), bias=False)\n      (bn3): BatchNorm2d(2048, eps=1e-05, momentum=0.1, affine=True, track_running_stats=True)\n      (relu): ReLU(inplace=True)\n    )\n  )\n  (avgpool): AdaptiveAvgPool2d(output_size=(1, 1))\n  (fc): Linear(in_features=2048, out_features=10, bias=True)\n)",
    "pretrained_model": true,
    "batchSize": 64,
    "n_epochs": 1,
    "optimizer": "Adam",
    "lr": 0.001
}
2025-03-11 11:48:16 - ==================================================
2025-03-11 11:48:16 - Running script: pretrained_models.py
2025-03-11 11:48:16 - Script started at: 2025-03-11 11:48:16
2025-03-11 11:48:16 - Using device: cuda
2025-03-11 11:48:16 - CUDA Device Total Memory [GB]:25.380061184
…
